training/models/model.tflite (tflite, 91864 bytes, 10 tensors)

simple_cnn/dense_2/MatMul i1 [4, 128] scale=0.0024681732 zero_point=0
0	0xf1	-0.037022598
1	0x0c	0.029618077
2	0x03	0.0074045192
3	0xa8	-0.21719924
4	0xd1	-0.11600414
5	0xa2	-0.23200828
6	0xa7	-0.2196674
7	0x9b	-0.24928549
8	0xab	-0.20979472
9	0x87	-0.29864895
10	0xfd	-0.0074045192
11	0xab	-0.20979472
12	0x35	0.13081318
13	0x98	-0.25669
14	0xb2	-0.1925175
15	0x0e	0.034554426
16	0x01	0.0024681732
17	0xd2	-0.11353596
18	0xe4	-0.06910885
19	0xea	-0.05429981
20	0xa7	-0.2196674
21	0x0a	0.024681732
22	0xe0	-0.07898154
23	0xe8	-0.059236154
24	0xcb	-0.13081318
25	0xfd	-0.0074045192
26	0x0d	0.03208625
27	0xd1	-0.11600414
28	0x92	-0.27149904
29	0x09	0.022213558
30	0xcc	-0.128345
31	0x41	0.16043125
32	0x28	0.09872693
33	0x5f	0.23447645
34	0xf9	-0.017277213
35	0x0b	0.027149905
36	0x04	0.009872693
37	0x8c	-0.28630808
38	0xd0	-0.11847231
39	0x3a	0.14315404
40	0xee	-0.044427115
41	0xf8	-0.019745385
42	0xa6	-0.22213559
43	0x22	0.083917886
44	0xe4	-0.06910885
45	0xc7	-0.14068587
46	0xd0	-0.11847231
47	0xf9	-0.017277213
48	0x9f	-0.2394128
49	0x1b	0.066640675
50	0xd0	-0.11847231
51	0x36	0.13328135
52	0x04	0.009872693
53	0x00	0.0
54	0xfe	-0.0049363463
55	0x14	0.049363464
56	0xcc	-0.128345
57	0x46	0.17277212
58	0x29	0.1011951
59	0xca	-0.13328135
60	0xf2	-0.034554426
61	0x89	-0.29371262
62	0xbc	-0.16783577
63	0xc6	-0.14315404
64	0xc3	-0.15055856
65	0x02	0.0049363463
66	0x95	-0.26409453
67	0xcb	-0.13081318
68	0xa8	-0.21719924
69	0x23	0.08638606
70	0x17	0.05676798
71	0xc3	-0.15055856
72	0xb1	-0.19498567
73	0x0f	0.037022598
74	0x3d	0.15055856
75	0x15	0.051831637
76	0x29	0.1011951
77	0xd4	-0.10859962
78	0xa5	-0.22460376
79	0xed	-0.04689529
80	0xd5	-0.10613145
81	0xf6	-0.024681732
82	0x0b	0.027149905
83	0x98	-0.25669
84	0x27	0.09625875
85	0x0b	0.027149905
86	0xda	-0.09379058
87	0xf2	-0.034554426
88	0x45	0.17030394
89	0xa6	-0.22213559
90	0xf7	-0.022213558
91	0xb8	-0.17770846
92	0x3b	0.14562222
93	0x84	-0.30605346
94	0xa5	-0.22460376
95	0x26	0.09379058
96	0x81	-0.313458
97	0x1c	0.06910885
98	0x2a	0.10366327
99	0xb8	-0.17770846
100	0xef	-0.041958943
101	0x11	0.041958943
102	0x88	-0.29618078
103	0xd0	-0.11847231
104	0xc2	-0.15302673
105	0x19	0.06170433
106	0xa0	-0.23694462
107	0xa4	-0.22707193
108	0x20	0.07898154
109	0xc3	-0.15055856
110	0x00	0.0
111	0xa1	-0.23447645
112	0xf0	-0.03949077
113	0xc4	-0.14809039
114	0xe1	-0.076513365
115	0x8c	-0.28630808
116	0x2a	0.10366327
117	0x87	-0.29864895
118	0xc5	-0.14562222
119	0x21	0.08144972
120	0x3b	0.14562222
121	0xdc	-0.08885423
122	0x21	0.08144972
123	0xc7	-0.14068587
124	0x47	0.1752403
125	0xfe	-0.0049363463
126	0xe7	-0.06170433
127	0xa1	-0.23447645
128	0xcd	-0.12587683
129	0xc2	-0.15302673
130	0xac	-0.20732655
131	0x1f	0.076513365
132	0x3c	0.14809039
133	0x96	-0.26162636
134	0xec	-0.049363464
135	0x24	0.08885423
136	0x22	0.083917886
137	0x38	0.1382177
138	0xd2	-0.11353596
139	0x25	0.09132241
140	0xfe	-0.0049363463
141	0xed	-0.04689529
142	0xce	-0.12340866
143	0xb4	-0.18758117
144	0xdf	-0.08144972
145	0xb9	-0.1752403
146	0x3b	0.14562222
147	0xca	-0.13328135
148	0x9b	-0.24928549
149	0x35	0.13081318
150	0x20	0.07898154
151	0x2a	0.10366327
152	0xc7	-0.14068587
153	0x27	0.09625875
154	0xe9	-0.05676798
155	0xf0	-0.03949077
156	0x2e	0.11353596
157	0xb2	-0.1925175
158	0xd6	-0.10366327
159	0x8d	-0.2838399
160	0x0b	0.027149905
161	0x16	0.05429981
162	0x17	0.05676798
163	0x30	0.11847231
164	0xa3	-0.22954011
165	0xd8	-0.09872693
166	0xb8	-0.17770846
167	0xa3	-0.22954011
168	0xe7	-0.06170433
169	0x23	0.08638606
170	0x37	0.13574952
171	0x22	0.083917886
172	0xb2	-0.1925175
173	0x09	0.022213558
174	0xc2	-0.15302673
175	0x08	0.019745385
176	0x0b	0.027149905
177	0xef	-0.041958943
178	0xe0	-0.07898154
179	0x09	0.022213558
180	0x02	0.0049363463
181	0x13	0.04689529
182	0x4d	0.19004934
183	0x98	-0.25669
184	0x23	0.08638606
185	0xcc	-0.128345
186	0xa1	-0.23447645
187	0xcc	-0.128345
188	0x2c	0.10859962
189	0xf6	-0.024681732
190	0x1d	0.07157702
191	0xfd	-0.0074045192
192	0xad	-0.20485838
193	0x1f	0.076513365
194	0xb9	-0.1752403
195	0xec	-0.049363464
196	0x2c	0.10859962
197	0x02	0.0049363463
198	0xa0	-0.23694462
199	0xf1	-0.037022598
200	0xfb	-0.012340866
201	0xea	-0.05429981
202	0xbf	-0.16043125
203	0x17	0.05676798
204	0x1e	0.074045196
205	0x3d	0.15055856
206	0x21	0.08144972
207	0xc8	-0.1382177
208	0xa4	-0.22707193
209	0x23	0.08638606
210	0x25	0.09132241
211	0x2c	0.10859962
212	0x3c	0.14809039
213	0xf3	-0.03208625
214	0x07	0.017277213
215	0x57	0.21473107
216	0xc0	-0.15796308
217	0xd6	-0.10366327
218	0x07	0.017277213
219	0xe0	-0.07898154
220	0xa9	-0.21473107
221	0x36	0.13328135
222	0x9d	-0.24434914
223	0x23	0.08638606
224	0xbd	-0.1653676
225	0xe2	-0.074045196
226	0x04	0.009872693
227	0x93	-0.26903087
228	0xdf	-0.08144972
229	0xd4	-0.10859962
230	0x3a	0.14315404
231	0x13	0.04689529
232	0x2b	0.10613145
233	0x1f	0.076513365
234	0x27	0.09625875
235	0x2c	0.10859962
236	0x0b	0.027149905
237	0xf2	-0.034554426
238	0xd2	-0.11353596
239	0xf2	-0.034554426
240	0xf8	-0.019745385
241	0x98	-0.25669
242	0xda	-0.09379058
243	0x1d	0.07157702
244	0xe5	-0.066640675
245	0xcf	-0.120940484
246	0x43	0.1653676
247	0x3c	0.14809039
248	0xa0	-0.23694462
249	0x3e	0.15302673
250	0x46	0.17277212
251	0x00	0.0
252	0xbd	-0.1653676
253	0xef	-0.041958943
254	0x1a	0.0641725
255	0x90	-0.2764354

simple_cnn/batch_normalization_5/batchnorm/mul_1 i1 [128, 128] scale=0.0022329278 zero_point=0
0	0xd8	-0.08931711
1	0x07	0.015630495
2	0x10	0.035726845
3	0x25	0.082618326
4	0x13	0.04242563
5	0x14	0.044658557
6	0x14	0.044658557
7	0xd1	-0.10494761
8	0xbf	-0.1451403
9	0xe9	-0.05135734
10	0x31	0.10941346
11	0x2d	0.10048175
12	0x22	0.075919546
13	0x20	0.07145369
14	0x34	0.11611225
15	0x3d	0.1362086
16	0xed	-0.04242563
17	0x3d	0.1362086
18	0x39	0.12727688
19	0xeb	-0.046891484
20	0x3d	0.1362086
21	0xd1	-0.10494761
22	0xc7	-0.12727688
23	0xd6	-0.09378297
24	0x3a	0.1295098
25	0xe3	-0.0647549
26	0x10	0.035726845
27	0x17	0.05135734
28	0xc3	-0.1362086
29	0x12	0.0401927
30	0xf1	-0.033493917
31	0xcf	-0.10941346
32	0x25	0.082618326
33	0xf8	-0.017863423
34	0xcc	-0.11611225
35	0xf8	-0.017863423
36	0x32	0.11164639
37	0x03	0.0066987835
38	0x0a	0.022329278
39	0x33	0.11387932
40	0x26	0.08485126
41	0x15	0.046891484
42	0x1d	0.0647549
43	0xdf	-0.073686615
44	0xd4	-0.098248824
45	0x07	0.015630495
46	0xc9	-0.122811034
47	0x0f	0.033493917
48	0xc3	-0.1362086
49	0x17	0.05135734
50	0xce	-0.11164639
51	0x12	0.0401927
52	0x2a	0.09378297
53	0xfd	-0.0066987835
54	0xb3	-0.17193544
55	0x1d	0.0647549
56	0x1c	0.06252198
57	0x07	0.015630495
58	0x0b	0.024562206
59	0x20	0.07145369
60	0x13	0.04242563
61	0x15	0.046891484
62	0xd6	-0.09378297
63	0x07	0.015630495
64	0x0d	0.029028062
65	0xe8	-0.053590268
66	0x1c	0.06252198
67	0x41	0.1451403
68	0x0f	0.033493917
69	0x23	0.07815248
70	0x29	0.09155004
71	0xd8	-0.08931711
72	0xe3	-0.0647549
73	0xc6	-0.1295098
74	0x12	0.0401927
75	0xf5	-0.024562206
76	0xc9	-0.122811034
77	0x22	0.075919546
78	0x08	0.017863423
79	0xc7	-0.12727688
80	0x20	0.07145369
81	0xe4	-0.06252198
82	0x09	0.02009635
83	0xdc	-0.0803854
84	0x30	0.107180536
85	0xe8	-0.053590268
86	0xf5	-0.024562206
87	0xe6	-0.058056124
88	0xc5	-0.13174275
89	0xe6	-0.058056124
90	0x2d	0.10048175
91	0xd2	-0.10271468
92	0x22	0.075919546
93	0xeb	-0.046891484
94	0xf6	-0.022329278
95	0xee	-0.0401927
96	0x06	0.013397567
97	0x06	0.013397567
98	0x2b	0.0960159
99	0xcb	-0.11834517
100	0x09	0.02009635
101	0xc4	-0.13397567
102	0xe7	-0.055823196
103	0x0d	0.029028062
104	0x04	0.008931711
105	0x0e	0.03126099
106	0x13	0.04242563
107	0xd7	-0.09155004
108	0xe6	-0.058056124
109	0x03	0.0066987835
110	0x0f	0.033493917
111	0xfc	-0.008931711
112	0xde	-0.075919546
113	0xe3	-0.0647549
114	0x12	0.0401927
115	0x1e	0.066987835
116	0xfe	-0.0044658557
117	0xdd	-0.07815248
118	0x10	0.035726845
119	0x23	0.07815248
120	0x12	0.0401927
121	0xc9	-0.122811034
122	0xdc	-0.0803854
123	0xde	-0.075919546
124	0x33	0.11387932
125	0xf4	-0.026795134
126	0xce	-0.11164639
127	0x13	0.04242563
128	0x29	0.09155004
129	0x32	0.11164639
130	0xdd	-0.07815248
131	0x22	0.075919546
132	0xd7	-0.09155004
133	0xeb	-0.046891484
134	0x2d	0.10048175
135	0xde	-0.075919546
136	0xcc	-0.11611225
137	0x27	0.08708419
138	0x28	0.08931711
139	0xfb	-0.011164639
140	0xd9	-0.08708419
141	0xe1	-0.06922077
142	0xe7	-0.055823196
143	0x13	0.04242563
144	0x2c	0.098248824
145	0x0e	0.03126099
146	0xd6	-0.09378297
147	0x37	0.122811034
148	0x2c	0.098248824
149	0xc8	-0.12504396
150	0x00	0.0
151	0xe3	-0.0647549
152	0x3c	0.13397567
153	0xde	-0.075919546
154	0xe4	-0.06252198
155	0x27	0.08708419
156	0x20	0.07145369
157	0xe7	-0.055823196
158	0xdb	-0.082618326
159	0x1b	0.06028905
160	0x02	0.0044658557
161	0x1c	0.06252198
162	0xc1	-0.14067446
163	0xf8	-0.017863423
164	0x31	0.10941346
165	0x17	0.05135734
166	0xf2	-0.03126099
167	0x31	0.10941346
168	0x18	0.053590268
169	0xc6	-0.1295098
170	0xf8	-0.017863423
171	0x15	0.046891484
172	0xe8	-0.053590268
173	0x05	0.011164639
174	0x27	0.08708419
175	0x00	0.0
176	0xd4	-0.098248824
177	0xf9	-0.015630495
178	0xb2	-0.17416838
179	0xe4	-0.06252198
180	0xdb	-0.082618326
181	0xfc	-0.008931711
182	0x07	0.015630495
183	0x3b	0.13174275
184	0x1e	0.066987835
185	0xde	-0.075919546
186	0xf5	-0.024562206
187	0xcd	-0.11387932
188	0x17	0.05135734
189	0x06	0.013397567
190	0x0d	0.029028062
191	0xeb	-0.046891484
192	0x25	0.082618326
193	0x04	0.008931711
194	0x3a	0.1295098
195	0x1d	0.0647549
196	0x00	0.0
197	0x15	0.046891484
198	0xf1	-0.033493917
199	0xff	-0.0022329278
200	0xf6	-0.022329278
201	0x08	0.017863423
202	0x0b	0.024562206
203	0xec	-0.044658557
204	0x10	0.035726845
205	0xef	-0.037959773
206	0xfd	-0.0066987835
207	0xbf	-0.1451403
208	0xe6	-0.058056124
209	0xec	-0.044658557
210	0x39	0.12727688
211	0xb9	-0.15853788
212	0xc7	-0.12727688
213	0x25	0.082618326
214	0xf3	-0.029028062
215	0x25	0.082618326
216	0xf3	-0.029028062
217	0xe3	-0.0647549
218	0xed	-0.04242563
219	0xfb	-0.011164639
220	0xd5	-0.0960159
221	0xfe	-0.0044658557
222	0xfb	-0.011164639
223	0xfe	-0.0044658557
224	0x16	0.049124412
225	0x11	0.037959773
226	0xe6	-0.058056124
227	0x0e	0.03126099
228	0xe3	-0.0647549
229	0xe6	-0.058056124
230	0x30	0.107180536
231	0xff	-0.0022329278
232	0xd3	-0.10048175
233	0x18	0.053590268
234	0x27	0.08708419
235	0xdd	-0.07815248
236	0x1a	0.058056124
237	0xdd	-0.07815248
238	0x1c	0.06252198
239	0x35	0.11834517
240	0xdc	-0.0803854
241	0xdd	-0.07815248
242	0x3c	0.13397567
243	0x23	0.07815248
244	0xd3	-0.10048175
245	0x2d	0.10048175
246	0x23	0.07815248
247	0xef	-0.037959773
248	0xc2	-0.13844153
249	0xec	-0.044658557
250	0x22	0.075919546
251	0xe8	-0.053590268
252	0x14	0.044658557
253	0xf8	-0.017863423
254	0xd2	-0.10271468
255	0xd5	-0.0960159

simple_cnn/batch_normalization_4/batchnorm/mul_1 i1 [128, 384] scale=0.00059051916 zero_point=0
0	0xf5	-0.006495711
1	0x00	0.0
2	0xda	-0.022439728
3	0x14	0.011810383
4	0xf0	-0.009448307
5	0xe7	-0.014762979
6	0xff	-0.00059051916
7	0xd8	-0.023620766
8	0xf9	-0.0041336343
9	0x20	0.018896613
10	0x1d	0.017125055
11	0xe9	-0.013581941
12	0xed	-0.011219864
13	0xd9	-0.023030248
14	0xe7	-0.014762979
15	0xfc	-0.0023620767
16	0x19	0.014762979
17	0x0b	0.006495711
18	0xe0	-0.018896613
19	0xea	-0.012991422
20	0xdd	-0.020668171
21	0xf8	-0.0047241533
22	0xe7	-0.014762979
23	0x0e	0.008267269
24	0x17	0.013581941
25	0x1b	0.015944017
26	0x0e	0.008267269
27	0xf2	-0.008267269
28	0xff	-0.00059051916
29	0x00	0.0
30	0xd8	-0.023620766
31	0x05	0.0029525957
32	0xe7	-0.014762979
33	0xf6	-0.0059051914
34	0x09	0.0053146724
35	0x16	0.012991422
36	0xe7	-0.014762979
37	0xfa	-0.003543115
38	0x2b	0.025392324
39	0xeb	-0.012400903
40	0xf6	-0.0059051914
41	0xe4	-0.016534537
42	0x03	0.0017715575
43	0xdb	-0.02184921
44	0xd8	-0.023620766
45	0x1d	0.017125055
46	0x0e	0.008267269
47	0x00	0.0
48	0xec	-0.011810383
49	0xd5	-0.025392324
50	0xf3	-0.007676749
51	0x0f	0.008857788
52	0x08	0.0047241533
53	0xf1	-0.008857788
54	0xe2	-0.017715575
55	0x19	0.014762979
56	0xe9	-0.013581941
57	0xea	-0.012991422
58	0x03	0.0017715575
59	0xeb	-0.012400903
60	0x0f	0.008857788
61	0x2c	0.025982844
62	0xe6	-0.015353498
63	0xe5	-0.015944017
64	0x15	0.012400903
65	0xf0	-0.009448307
66	0xe7	-0.014762979
67	0x31	0.02893544
68	0xdb	-0.02184921
69	0xf3	-0.007676749
70	0xfd	-0.0017715575
71	0xef	-0.010038826
72	0xe8	-0.01417246
73	0xf9	-0.0041336343
74	0xfa	-0.003543115
75	0xe7	-0.014762979
76	0x24	0.02125869
77	0xf1	-0.008857788
78	0xfb	-0.0029525957
79	0xe4	-0.016534537
80	0xcb	-0.031297516
81	0xe3	-0.017125055
82	0xd0	-0.02834492
83	0x0b	0.006495711
84	0xf0	-0.009448307
85	0xee	-0.010629345
86	0xcf	-0.02893544
87	0xdf	-0.019487133
88	0xe7	-0.014762979
89	0x04	0.0023620767
90	0xe4	-0.016534537
91	0xd5	-0.025392324
92	0x15	0.012400903
93	0xe8	-0.01417246
94	0xd6	-0.024801806
95	0x1f	0.018306093
96	0xfd	-0.0017715575
97	0xc8	-0.033069074
98	0x11	0.010038826
99	0xf7	-0.0053146724
100	0x21	0.019487133
101	0xfc	-0.0023620767
102	0x06	0.003543115
103	0x15	0.012400903
104	0x03	0.0017715575
105	0x14	0.011810383
106	0xf7	-0.0053146724
107	0x06	0.003543115
108	0xed	-0.011219864
109	0x06	0.003543115
110	0xfb	-0.0029525957
111	0x00	0.0
112	0x1e	0.017715575
113	0xf6	-0.0059051914
114	0x06	0.003543115
115	0x3b	0.034840632
116	0x27	0.023030248
117	0x18	0.01417246
118	0xff	-0.00059051916
119	0xed	-0.011219864
120	0xf4	-0.00708623
121	0x27	0.023030248
122	0xe7	-0.014762979
123	0xfa	-0.003543115
124	0xed	-0.011219864
125	0x10	0.009448307
126	0x0b	0.006495711
127	0x24	0.02125869
128	0xf5	-0.006495711
129	0xe9	-0.013581941
130	0x1f	0.018306093
131	0x21	0.019487133
132	0x1b	0.015944017
133	0xd8	-0.023620766
134	0xeb	-0.012400903
135	0x18	0.01417246
136	0x1d	0.017125055
137	0x32	0.029525958
138	0xd5	-0.025392324
139	0x1b	0.015944017
140	0xf5	-0.006495711
141	0xfc	-0.0023620767
142	0xec	-0.011810383
143	0xfb	-0.0029525957
144	0xe0	-0.018896613
145	0x0e	0.008267269
146	0x14	0.011810383
147	0xe4	-0.016534537
148	0xde	-0.020077651
149	0xfa	-0.003543115
150	0xf5	-0.006495711
151	0xf0	-0.009448307
152	0xf9	-0.0041336343
153	0x10	0.009448307
154	0x23	0.020668171
155	0x19	0.014762979
156	0xd2	-0.027163882
157	0x1f	0.018306093
158	0xe0	-0.018896613
159	0x28	0.023620766
160	0xea	-0.012991422
161	0xd7	-0.024211286
162	0x02	0.0011810383
163	0x05	0.0029525957
164	0xf3	-0.007676749
165	0x01	0.00059051916
166	0x00	0.0
167	0x0a	0.0059051914
168	0xf1	-0.008857788
169	0xf2	-0.008267269
170	0xe4	-0.016534537
171	0xe3	-0.017125055
172	0xf9	-0.0041336343
173	0x19	0.014762979
174	0x14	0.011810383
175	0x1d	0.017125055
176	0x41	0.038383745
177	0x01	0.00059051916
178	0x0c	0.00708623
179	0x1e	0.017715575
180	0xdd	-0.020668171
181	0xf9	-0.0041336343
182	0xf2	-0.008267269
183	0x01	0.00059051916
184	0xd8	-0.023620766
185	0x2e	0.027163882
186	0xe2	-0.017715575
187	0xe6	-0.015353498
188	0xf6	-0.0059051914
189	0xf8	-0.0047241533
190	0x15	0.012400903
191	0xee	-0.010629345
192	0x33	0.030116478
193	0xf0	-0.009448307
194	0xf5	-0.006495711
195	0xd2	-0.027163882
196	0xe5	-0.015944017
197	0xf7	-0.0053146724
198	0x0f	0.008857788
199	0xfe	-0.0011810383
200	0x11	0.010038826
201	0xde	-0.020077651
202	0xf6	-0.0059051914
203	0x06	0.003543115
204	0x1c	0.016534537
205	0x3f	0.03720271
206	0xe7	-0.014762979
207	0xe1	-0.018306093
208	0xdf	-0.019487133
209	0x2f	0.0277544
210	0xf4	-0.00708623
211	0x2d	0.026573362
212	0xf5	-0.006495711
213	0xdf	-0.019487133
214	0x0b	0.006495711
215	0x2c	0.025982844
216	0x24	0.02125869
217	0xf1	-0.008857788
218	0x28	0.023620766
219	0x1f	0.018306093
220	0xdc	-0.02125869
221	0x11	0.010038826
222	0x24	0.02125869
223	0xed	-0.011219864
224	0xed	-0.011219864
225	0x03	0.0017715575
226	0x35	0.031297516
227	0x1a	0.015353498
228	0xeb	-0.012400903
229	0x02	0.0011810383
230	0xef	-0.010038826
231	0xed	-0.011219864
232	0x17	0.013581941
233	0x03	0.0017715575
234	0x0b	0.006495711
235	0x19	0.014762979
236	0x1b	0.015944017
237	0x2d	0.026573362
238	0x38	0.033069074
239	0x23	0.020668171
240	0xd1	-0.0277544
241	0x36	0.031888034
242	0xeb	-0.012400903
243	0x09	0.0053146724
244	0xe3	-0.017125055
245	0x11	0.010038826
246	0xfd	-0.0017715575
247	0xd4	-0.025982844
248	0x04	0.0023620767
249	0x2f	0.0277544
250	0xec	-0.011810383
251	0x35	0.031297516
252	0x4b	0.044288937
253	0x05	0.0029525957
254	0xe6	-0.015353498
255	0xe2	-0.017715575

simple_cnn/conv2d_3/Conv2D i1 [64, 1, 1, 64]
0	0xc3	-61
1	0xe8	-24
2	0x3c	60
3	0x45	69
4	0xa3	-93
5	0xa3	-93
6	0x85	-123
7	0x9a	-102
8	0x60	96
9	0x60	96
10	0xd0	-48
11	0x12	18
12	0x7f	127
13	0xb1	-79
14	0xe4	-28
15	0xd3	-45
16	0x5e	94
17	0x4b	75
18	0xcf	-49
19	0x30	48
20	0x43	67
21	0xac	-84
22	0x9f	-97
23	0xa1	-95
24	0x1d	29
25	0x42	66
26	0x20	32
27	0x06	6
28	0x03	3
29	0x53	83
30	0xda	-38
31	0xc1	-63
32	0x77	119
33	0x07	7
34	0xec	-20
35	0x3a	58
36	0x35	53
37	0x12	18
38	0xc1	-63
39	0xaf	-81
40	0xdb	-37
41	0xf6	-10
42	0x02	2
43	0x22	34
44	0x8a	-118
45	0x1d	29
46	0x05	5
47	0x02	2
48	0xa2	-94
49	0xdd	-35
50	0x2e	46
51	0x10	16
52	0xb2	-78
53	0x06	6
54	0xbe	-66
55	0xce	-50
56	0x21	33
57	0x5b	91
58	0xdc	-36
59	0xad	-83
60	0xc3	-61
61	0x45	69
62	0x70	112
63	0xf8	-8
64	0x12	18
65	0xb6	-74
66	0x1a	26
67	0x0c	12
68	0xeb	-21
69	0x61	97
70	0x02	2
71	0x06	6
72	0x3f	63
73	0xe4	-28
74	0xa6	-90
75	0xa4	-92
76	0xb2	-78
77	0x47	71
78	0x4e	78
79	0x09	9
80	0x26	38
81	0x41	65
82	0xc8	-56
83	0x28	40
84	0x95	-107
85	0xfd	-3
86	0xaf	-81
87	0x3a	58
88	0x06	6
89	0x81	-127
90	0x20	32
91	0xdb	-37
92	0x1d	29
93	0x44	68
94	0x02	2
95	0x3a	58
96	0xa6	-90
97	0xb6	-74
98	0x03	3
99	0x1d	29
100	0xde	-34
101	0x27	39
102	0xc6	-58
103	0x44	68
104	0xe1	-31
105	0x0b	11
106	0xce	-50
107	0xfc	-4
108	0x4b	75
109	0x40	64
110	0x1f	31
111	0xb9	-71
112	0x4a	74
113	0xbc	-68
114	0xd7	-41
115	0x1e	30
116	0x5d	93
117	0xc0	-64
118	0xe8	-24
119	0x14	20
120	0xb2	-78
121	0xd7	-41
122	0xd2	-46
123	0x06	6
124	0x84	-124
125	0x33	51
126	0xf4	-12
127	0x43	67
128	0xcc	-52
129	0x2d	45
130	0xe8	-24
131	0xaa	-86
132	0x2b	43
133	0xca	-54
134	0x43	67
135	0x81	-127
136	0x34	52
137	0x41	65
138	0x43	67
139	0x04	4
140	0xfe	-2
141	0x57	87
142	0x3f	63
143	0xe0	-32
144	0x11	17
145	0xc4	-60
146	0x2e	46
147	0x06	6
148	0x51	81
149	0x0c	12
150	0xfa	-6
151	0x0a	10
152	0x41	65
153	0x16	22
154	0xcd	-51
155	0xd5	-43
156	0x06	6
157	0xe2	-30
158	0x1e	30
159	0xd8	-40
160	0x44	68
161	0x52	82
162	0x0f	15
163	0xf6	-10
164	0x53	83
165	0xeb	-21
166	0x3e	62
167	0xa9	-87
168	0x31	49
169	0xb0	-80
170	0x4d	77
171	0xcc	-52
172	0x22	34
173	0xc7	-57
174	0xb0	-80
175	0xc6	-58
176	0xca	-54
177	0xf6	-10
178	0xff	-1
179	0xef	-17
180	0xc8	-56
181	0xde	-34
182	0x3c	60
183	0xd3	-45
184	0xd7	-41
185	0x36	54
186	0x0f	15
187	0xc6	-58
188	0x11	17
189	0x67	103
190	0x04	4
191	0xcf	-49
192	0xb9	-71
193	0x37	55
194	0x35	53
195	0xa5	-91
196	0x19	25
197	0xe1	-31
198	0x0b	11
199	0x53	83
200	0xb5	-75
201	0xad	-83
202	0xf1	-15
203	0x12	18
204	0x2d	45
205	0xc2	-62
206	0x3f	63
207	0x14	20
208	0xe7	-25
209	0xdf	-33
210	0x0a	10
211	0xac	-84
212	0x29	41
213	0xf2	-14
214	0x29	41
215	0xaf	-81
216	0xef	-17
217	0x81	-127
218	0x05	5
219	0xcc	-52
220	0xa8	-88
221	0x0c	12
222	0xc5	-59
223	0x4d	77
224	0x3a	58
225	0x34	52
226	0xd8	-40
227	0x4e	78
228	0xc1	-63
229	0xf9	-7
230	0x05	5
231	0x26	38
232	0x06	6
233	0x5c	92
234	0xba	-70
235	0xd6	-42
236	0x3e	62
237	0xf8	-8
238	0x2d	45
239	0xb1	-79
240	0x02	2
241	0x38	56
242	0x4a	74
243	0xe6	-26
244	0x17	23
245	0xe7	-25
246	0x14	20
247	0xb5	-75
248	0xcd	-51
249	0xc9	-55
250	0x4a	74
251	0xdb	-37
252	0x2a	42
253	0x1a	26
254	0x0c	12
255	0x4b	75

simple_cnn/depthwise_conv2d_2/depthwise i1 [1, 3, 3, 64]
0	0x16	22
1	0x38	56
2	0xdc	-36
3	0xf6	-10
4	0x3f	63
5	0xad	-83
6	0x13	19
7	0x03	3
8	0x6a	106
9	0x40	64
10	0x0f	15
11	0x3c	60
12	0x00	0
13	0x2e	46
14	0x81	-127
15	0x60	96
16	0x23	35
17	0xfb	-5
18	0x2e	46
19	0xc3	-61
20	0x58	88
21	0x7f	127
22	0x53	83
23	0x21	33
24	0xe7	-25
25	0xb9	-71
26	0x04	4
27	0xf0	-16
28	0xfa	-6
29	0xec	-20
30	0x06	6
31	0x7f	127
32	0x0f	15
33	0x50	80
34	0xfa	-6
35	0xa0	-96
36	0x1e	30
37	0xd3	-45
38	0xeb	-21
39	0x7f	127
40	0xfd	-3
41	0x29	41
42	0xd9	-39
43	0xeb	-21
44	0x1d	29
45	0x24	36
46	0x03	3
47	0xc6	-58
48	0xd4	-44
49	0x12	18
50	0xb0	-80
51	0xdd	-35
52	0xeb	-21
53	0xf5	-11
54	0xa4	-92
55	0x14	20
56	0xae	-82
57	0x10	16
58	0xb4	-76
59	0xbb	-69
60	0xaa	-86
61	0xd2	-46
62	0xe4	-28
63	0xef	-17
64	0x59	89
65	0x39	57
66	0xde	-34
67	0x17	23
68	0x4b	75
69	0x51	81
70	0xda	-38
71	0xe1	-31
72	0x15	21
73	0x5a	90
74	0x2c	44
75	0xf4	-12
76	0x7f	127
77	0xd7	-41
78	0xa2	-94
79	0x22	34
80	0x1a	26
81	0x46	70
82	0xd9	-39
83	0xdf	-33
84	0x15	21
85	0x23	35
86	0xe7	-25
87	0x1d	29
88	0x53	83
89	0x11	17
90	0xe6	-26
91	0xf1	-15
92	0x14	20
93	0xba	-70
94	0xd7	-41
95	0x37	55
96	0x1d	29
97	0x1b	27
98	0xc9	-55
99	0xd0	-48
100	0x26	38
101	0xfe	-2
102	0x29	41
103	0x1b	27
104	0xff	-1
105	0x7e	126
106	0xee	-18
107	0x81	-127
108	0x15	21
109	0xef	-17
110	0xd7	-41
111	0x45	69
112	0xe5	-27
113	0x8d	-115
114	0xd7	-41
115	0xd0	-48
116	0x10	16
117	0x46	70
118	0x22	34
119	0x1d	29
120	0xb8	-72
121	0x3c	60
122	0x3c	60
123	0x18	24
124	0xc9	-55
125	0x4a	74
126	0x43	67
127	0x16	22
128	0x41	65
129	0x1c	28
130	0xba	-70
131	0xcb	-53
132	0x7f	127
133	0x7f	127
134	0xa0	-96
135	0x0c	12
136	0xd8	-40
137	0x50	80
138	0xca	-54
139	0x38	56
140	0x4f	79
141	0x4f	79
142	0x3c	60
143	0x7f	127
144	0xd3	-45
145	0x97	-105
146	0x7f	127
147	0x4a	74
148	0x46	70
149	0x04	4
150	0xba	-70
151	0x0a	10
152	0x52	82
153	0x47	71
154	0x3f	63
155	0x8e	-114
156	0x12	18
157	0x9d	-99
158	0x1f	31
159	0x4c	76
160	0xa5	-91
161	0xb7	-73
162	0x27	39
163	0x20	32
164	0xf1	-15
165	0x03	3
166	0x23	35
167	0x26	38
168	0x2d	45
169	0x0f	15
170	0xbe	-66
171	0x67	103
172	0x50	80
173	0x36	54
174	0x7f	127
175	0xcc	-52
176	0xb7	-73
177	0xf1	-15
178	0x88	-120
179	0x81	-127
180	0xba	-70
181	0x7f	127
182	0x99	-103
183	0x7f	127
184	0xea	-22
185	0xf1	-15
186	0x7f	127
187	0xe3	-29
188	0x3a	58
189	0x3a	58
190	0x81	-127
191	0xed	-19
192	0xa9	-87
193	0x55	85
194	0xde	-34
195	0xed	-19
196	0xc0	-64
197	0xf1	-15
198	0xf6	-10
199	0xc2	-62
200	0x41	65
201	0x5e	94
202	0xc4	-60
203	0x07	7
204	0x2b	43
205	0x78	120
206	0xb1	-79
207	0x21	33
208	0x1e	30
209	0xe1	-31
210	0x44	68
211	0xfb	-5
212	0x4e	78
213	0x55	85
214	0xd4	-44
215	0x37	55
216	0x94	-108
217	0xac	-84
218	0x00	0
219	0x6e	110
220	0xa8	-88
221	0xb5	-75
222	0x3f	63
223	0x27	39
224	0x24	36
225	0x4e	78
226	0x48	72
227	0x81	-127
228	0x3a	58
229	0xd6	-42
230	0x7f	127
231	0x5b	91
232	0xd3	-45
233	0x3b	59
234	0xd8	-40
235	0x79	121
236	0x34	52
237	0x3f	63
238	0x31	49
239	0x02	2
240	0xa4	-92
241	0x07	7
242	0x81	-127
243	0x49	73
244	0x38	56
245	0x4e	78
246	0x09	9
247	0x03	3
248	0x81	-127
249	0xb5	-75
250	0xd4	-44
251	0x0d	13
252	0x84	-124
253	0xc1	-63
254	0x9b	-101
255	0x28	40

simple_cnn/conv2d_2/Conv2D i1 [64, 1, 1, 32]
0	0x6f	111
1	0x9d	-99
2	0x51	81
3	0xed	-19
4	0xda	-38
5	0xb4	-76
6	0x35	53
7	0x07	7
8	0x7f	127
9	0x92	-110
10	0xdd	-35
11	0x10	16
12	0xff	-1
13	0x1a	26
14	0x71	113
15	0x14	20
16	0xb9	-71
17	0x67	103
18	0x94	-108
19	0x95	-107
20	0x56	86
21	0xf4	-12
22	0x3b	59
23	0x11	17
24	0x36	54
25	0x1e	30
26	0x81	-127
27	0xb2	-78
28	0xb5	-75
29	0x31	49
30	0xd1	-47
31	0xac	-84
32	0xc7	-57
33	0x1e	30
34	0x1e	30
35	0xec	-20
36	0xe9	-23
37	0xed	-19
38	0x90	-112
39	0x3e	62
40	0xd8	-40
41	0xaf	-81
42	0xf4	-12
43	0xc0	-64
44	0x5d	93
45	0xcd	-51
46	0xb6	-74
47	0x37	55
48	0x19	25
49	0xe0	-32
50	0xc3	-61
51	0xf9	-7
52	0xae	-82
53	0x34	52
54	0xd1	-47
55	0x81	-127
56	0x26	38
57	0x44	68
58	0x59	89
59	0x18	24
60	0x3f	63
61	0x11	17
62	0xba	-70
63	0xb3	-77
64	0x8c	-116
65	0xf3	-13
66	0x7a	122
67	0xee	-18
68	0x25	37
69	0xa6	-90
70	0x93	-109
71	0xef	-17
72	0x0d	13
73	0x2c	44
74	0x26	38
75	0x77	119
76	0x5c	92
77	0xa5	-91
78	0x05	5
79	0x95	-107
80	0x3d	61
81	0xbd	-67
82	0x38	56
83	0x25	37
84	0x15	21
85	0x61	97
86	0x2e	46
87	0x4a	74
88	0x41	65
89	0x7f	127
90	0x95	-107
91	0xb4	-76
92	0xa8	-88
93	0xe2	-30
94	0xac	-84
95	0xd3	-45
96	0x2b	43
97	0x37	55
98	0x08	8
99	0xb6	-74
100	0xb3	-77
101	0x63	99
102	0x01	1
103	0xb8	-72
104	0x04	4
105	0x56	86
106	0xd8	-40
107	0xaa	-86
108	0x90	-112
109	0xae	-82
110	0xac	-84
111	0xda	-38
112	0x7f	127
113	0x72	114
114	0x4d	77
115	0xd5	-43
116	0xa6	-90
117	0xf3	-13
118	0xe4	-28
119	0x94	-108
120	0x52	82
121	0xb8	-72
122	0x66	102
123	0xaf	-81
124	0xbe	-66
125	0x49	73
126	0x7b	123
127	0x45	69
128	0xdc	-36
129	0x46	70
130	0xc8	-56
131	0xb4	-76
132	0xa6	-90
133	0xb6	-74
134	0xc9	-55
135	0xc7	-57
136	0x6b	107
137	0xef	-17
138	0x43	67
139	0x81	-127
140	0x94	-108
141	0xe6	-26
142	0x05	5
143	0x01	1
144	0xb6	-74
145	0xd7	-41
146	0x0d	13
147	0xa2	-94
148	0x5d	93
149	0x27	39
150	0xeb	-21
151	0xc4	-60
152	0xf8	-8
153	0xe5	-27
154	0xdb	-37
155	0xa8	-88
156	0x98	-104
157	0x76	118
158	0xe5	-27
159	0xa6	-90
160	0x0f	15
161	0x0d	13
162	0x33	51
163	0x4f	79
164	0x1d	29
165	0xbc	-68
166	0xf1	-15
167	0xee	-18
168	0xdc	-36
169	0xbc	-68
170	0xea	-22
171	0x55	85
172	0xb6	-74
173	0xa8	-88
174	0xbd	-67
175	0xa3	-93
176	0x26	38
177	0xd9	-39
178	0xc3	-61
179	0x3f	63
180	0x43	67
181	0xa3	-93
182	0x4a	74
183	0xbb	-69
184	0x97	-105
185	0xbc	-68
186	0xc2	-62
187	0x3f	63
188	0x46	70
189	0xae	-82
190	0x81	-127
191	0x44	68
192	0xc6	-58
193	0x0f	15
194	0x3d	61
195	0x7e	126
196	0x19	25
197	0x07	7
198	0x61	97
199	0xa1	-95
200	0x00	0
201	0xab	-85
202	0x12	18
203	0xde	-34
204	0x81	-127
205	0x5b	91
206	0xfc	-4
207	0xaa	-86
208	0xc6	-58
209	0x59	89
210	0xd6	-42
211	0xe9	-23
212	0xed	-19
213	0x1b	27
214	0xe6	-26
215	0x46	70
216	0x3b	59
217	0xef	-17
218	0x51	81
219	0xec	-20
220	0x3b	59
221	0x2b	43
222	0xea	-22
223	0x13	19
224	0xd4	-44
225	0x19	25
226	0xff	-1
227	0xea	-22
228	0x24	36
229	0xe8	-24
230	0x7f	127
231	0x0d	13
232	0x1a	26
233	0x57	87
234	0x1f	31
235	0xac	-84
236	0xf1	-15
237	0xe2	-30
238	0x1a	26
239	0xb0	-80
240	0x15	21
241	0x33	51
242	0xa7	-89
243	0xb7	-73
244	0xe3	-29
245	0x1b	27
246	0x3f	63
247	0x61	97
248	0xcc	-52
249	0xe3	-29
250	0xc8	-56
251	0x62	98
252	0x51	81
253	0x58	88
254	0xa7	-89
255	0x8c	-116

simple_cnn/depthwise_conv2d_1/depthwise i1 [1, 3, 3, 32]
0	0xda	-38
1	0x36	54
2	0xa5	-91
3	0xa8	-88
4	0x64	100
5	0x4e	78
6	0xe2	-30
7	0xff	-1
8	0xd9	-39
9	0xf7	-9
10	0xa3	-93
11	0x0e	14
12	0xa3	-93
13	0x58	88
14	0x27	39
15	0x7f	127
16	0xe4	-28
17	0xfc	-4
18	0x8d	-115
19	0x19	25
20	0x81	-127
21	0xde	-34
22	0x31	49
23	0xae	-82
24	0x3f	63
25	0x1b	27
26	0x0c	12
27	0x64	100
28	0x1f	31
29	0x02	2
30	0xe9	-23
31	0x00	0
32	0xa1	-95
33	0x91	-111
34	0xfa	-6
35	0x8c	-116
36	0x74	116
37	0x9a	-102
38	0xfb	-5
39	0xc4	-60
40	0xf3	-13
41	0x0a	10
42	0xb9	-71
43	0x01	1
44	0xc6	-58
45	0x06	6
46	0xfc	-4
47	0x3e	62
48	0xc6	-58
49	0x90	-112
50	0x56	86
51	0xa0	-96
52	0xa6	-90
53	0x72	114
54	0xc6	-58
55	0xc8	-56
56	0xfa	-6
57	0x2b	43
58	0x0e	14
59	0xf4	-12
60	0x1b	27
61	0x14	20
62	0x32	50
63	0xea	-22
64	0x81	-127
65	0xcf	-49
66	0xef	-17
67	0x33	51
68	0x69	105
69	0xec	-20
70	0x2e	46
71	0x51	81
72	0x81	-127
73	0xe4	-28
74	0x35	53
75	0xab	-85
76	0x62	98
77	0xb0	-80
78	0x48	72
79	0x1b	27
80	0xf4	-12
81	0xe3	-29
82	0xe8	-24
83	0x8c	-116
84	0x29	41
85	0x1e	30
86	0xd5	-43
87	0xea	-22
88	0xd7	-41
89	0xcd	-51
90	0x36	54
91	0x59	89
92	0x2a	42
93	0xac	-84
94	0x35	53
95	0xbf	-65
96	0xbe	-66
97	0x7f	127
98	0xa0	-96
99	0xed	-19
100	0x61	97
101	0x6c	108
102	0xc7	-57
103	0x5d	93
104	0x0d	13
105	0x36	54
106	0x16	22
107	0xb3	-77
108	0x94	-108
109	0x7f	127
110	0x00	0
111	0x70	112
112	0xdd	-35
113	0x4b	75
114	0x9a	-102
115	0xda	-38
116	0xf9	-7
117	0x6e	110
118	0x56	86
119	0xa8	-88
120	0x81	-127
121	0x0d	13
122	0xf7	-9
123	0x3a	58
124	0xf1	-15
125	0xf7	-9
126	0x81	-127
127	0x34	52
128	0xc1	-63
129	0xa0	-96
130	0x9c	-100
131	0x06	6
132	0xf4	-12
133	0x3f	63
134	0xee	-18
135	0x52	82
136	0x81	-127
137	0x5a	90
138	0x96	-106
139	0xff	-1
140	0x81	-127
141	0xec	-20
142	0x5c	92
143	0x49	73
144	0xa9	-87
145	0x99	-103
146	0xf7	-9
147	0xbb	-69
148	0xbe	-66
149	0x14	20
150	0x1d	29
151	0xe3	-29
152	0xe4	-28
153	0x81	-127
154	0xec	-20
155	0xe8	-24
156	0x7f	127
157	0x10	16
158	0xeb	-21
159	0x11	17
160	0xd9	-39
161	0xd4	-44
162	0xbe	-66
163	0xe6	-26
164	0x53	83
165	0xa0	-96
166	0xcb	-53
167	0x96	-106
168	0xb5	-75
169	0xc5	-59
170	0x3d	61
171	0xe5	-27
172	0x92	-110
173	0xb3	-77
174	0x0e	14
175	0x8c	-116
176	0xa8	-88
177	0xca	-54
178	0xf9	-7
179	0xed	-19
180	0x13	19
181	0x2c	44
182	0xdf	-33
183	0x81	-127
184	0x3b	59
185	0x91	-111
186	0x7f	127
187	0x4f	79
188	0x02	2
189	0x81	-127
190	0x16	22
191	0x81	-127
192	0x16	22
193	0x6c	108
194	0xec	-20
195	0x81	-127
196	0x03	3
197	0x50	80
198	0x9b	-101
199	0x7f	127
200	0x2c	44
201	0x31	49
202	0x84	-124
203	0xf6	-10
204	0xa0	-96
205	0x35	53
206	0x0f	15
207	0x25	37
208	0x81	-127
209	0x7f	127
210	0x81	-127
211	0x7f	127
212	0x98	-104
213	0xdc	-36
214	0x8e	-114
215	0x2d	45
216	0x89	-119
217	0x9f	-97
218	0xf4	-12
219	0x03	3
220	0x29	41
221	0x1b	27
222	0x85	-123
223	0xf6	-10
224	0x09	9
225	0x44	68
226	0x81	-127
227	0x46	70
228	0x7f	127
229	0x96	-106
230	0x9e	-98
231	0xa5	-91
232	0x04	4
233	0x7f	127
234	0x81	-127
235	0xed	-19
236	0xc7	-57
237	0x20	32
238	0x7f	127
239	0x64	100
240	0x0e	14
241	0x54	84
242	0x5b	91
243	0xe9	-23
244	0xf9	-7
245	0x69	105
246	0x81	-127
247	0x87	-121
248	0x6a	106
249	0xab	-85
250	0xd3	-45
251	0x5e	94
252	0x10	16
253	0xd1	-47
254	0x82	-126
255	0x33	51

simple_cnn/conv2d_1/Conv2D i1 [32, 1, 1, 20]
0	0xfd	-3
1	0xfd	-3
2	0x6f	111
3	0x53	83
4	0x1d	29
5	0x40	64
6	0xcd	-51
7	0x35	53
8	0x01	1
9	0x61	97
10	0x46	70
11	0x15	21
12	0xda	-38
13	0xcb	-53
14	0xaf	-81
15	0xda	-38
16	0xc7	-57
17	0x15	21
18	0x07	7
19	0x7f	127
20	0x26	38
21	0x2e	46
22	0x4d	77
23	0xe1	-31
24	0x23	35
25	0x17	23
26	0xf5	-11
27	0xa2	-94
28	0x6c	108
29	0x47	71
30	0x81	-127
31	0x29	41
32	0x90	-112
33	0x42	66
34	0xc0	-64
35	0xc8	-56
36	0x1c	28
37	0x03	3
38	0x4a	74
39	0xde	-34
40	0xa3	-93
41	0xe6	-26
42	0x9b	-101
43	0x9d	-99
44	0x55	85
45	0xd5	-43
46	0xa2	-94
47	0xe6	-26
48	0x5c	92
49	0xca	-54
50	0x4d	77
51	0x25	37
52	0xc7	-57
53	0x39	57
54	0x12	18
55	0xa3	-93
56	0xd4	-44
57	0xc3	-61
58	0x7f	127
59	0x2b	43
60	0xc4	-60
61	0x06	6
62	0x8d	-115
63	0x54	84
64	0x26	38
65	0x58	88
66	0x69	105
67	0x22	34
68	0x7f	127
69	0x52	82
70	0x33	51
71	0x3c	60
72	0xf0	-16
73	0x57	87
74	0x5b	91
75	0x7e	126
76	0x09	9
77	0x26	38
78	0x91	-111
79	0x36	54
80	0x96	-106
81	0x94	-108
82	0xea	-22
83	0x20	32
84	0x2d	45
85	0x5c	92
86	0xc0	-64
87	0x81	-127
88	0x4b	75
89	0x00	0
90	0xb0	-80
91	0x86	-122
92	0x39	57
93	0xf8	-8
94	0x76	118
95	0xd1	-47
96	0x92	-110
97	0x30	48
98	0x2e	46
99	0x44	68
100	0x2b	43
101	0xcf	-49
102	0xd2	-46
103	0xd0	-48
104	0x28	40
105	0x81	-127
106	0xc9	-55
107	0x5c	92
108	0xee	-18
109	0xfe	-2
110	0xeb	-21
111	0xeb	-21
112	0xe9	-23
113	0x02	2
114	0xc5	-59
115	0x10	16
116	0x4d	77
117	0x31	49
118	0x3c	60
119	0x26	38
120	0x38	56
121	0x23	35
122	0xdd	-35
123	0xfb	-5
124	0xe8	-24
125	0x7f	127
126	0x1b	27
127	0x6e	110
128	0x13	19
129	0xed	-19
130	0x59	89
131	0xed	-19
132	0x1b	27
133	0xc6	-58
134	0xa4	-92
135	0x2f	47
136	0xe7	-25
137	0x1f	31
138	0xaf	-81
139	0x20	32
140	0xb7	-73
141	0x93	-109
142	0xea	-22
143	0xbf	-65
144	0x29	41
145	0x7f	127
146	0xa2	-94
147	0x9f	-97
148	0xcb	-53
149	0xe9	-23
150	0xe1	-31
151	0x5e	94
152	0x3c	60
153	0xfc	-4
154	0x05	5
155	0xd7	-41
156	0xb4	-76
157	0x59	89
158	0x3b	59
159	0x52	82
160	0x81	-127
161	0x01	1
162	0x4f	79
163	0x13	19
164	0xb3	-77
165	0x25	37
166	0x94	-108
167	0x39	57
168	0xef	-17
169	0x40	64
170	0x0b	11
171	0xf6	-10
172	0xe6	-26
173	0x56	86
174	0xd7	-41
175	0x14	20
176	0xb6	-74
177	0xf6	-10
178	0x64	100
179	0x21	33
180	0x41	65
181	0x46	70
182	0x7f	127
183	0xe4	-28
184	0xfa	-6
185	0x2c	44
186	0xad	-83
187	0xf9	-7
188	0x55	85
189	0xc0	-64
190	0xbc	-68
191	0xf2	-14
192	0x08	8
193	0x3a	58
194	0x21	33
195	0x2e	46
196	0x78	120
197	0xb6	-74
198	0x59	89
199	0x30	48
200	0x44	68
201	0x93	-109
202	0xfd	-3
203	0xd8	-40
204	0xcd	-51
205	0x58	88
206	0x04	4
207	0x23	35
208	0x71	113
209	0x4a	74
210	0xf6	-10
211	0x91	-111
212	0x95	-107
213	0xa1	-95
214	0xff	-1
215	0x81	-127
216	0xaf	-81
217	0x34	52
218	0x58	88
219	0x3b	59
220	0x6a	106
221	0x5f	95
222	0x8c	-116
223	0x8a	-118
224	0x8c	-116
225	0xa0	-96
226	0x36	54
227	0xf5	-11
228	0xd2	-46
229	0xc0	-64
230	0xda	-38
231	0x10	16
232	0x7f	127
233	0xde	-34
234	0x07	7
235	0x02	2
236	0x67	103
237	0x03	3
238	0x75	117
239	0x5d	93
240	0x1c	28
241	0xe9	-23
242	0x71	113
243	0xf7	-9
244	0x28	40
245	0xb0	-80
246	0x3d	61
247	0xcf	-49
248	0xdf	-33
249	0x0b	11
250	0xf4	-12
251	0xe3	-29
252	0x03	3
253	0xac	-84
254	0x58	88
255	0x81	-127

simple_cnn/depthwise_conv2d/depthwise i1 [1, 3, 3, 20]
0	0x7f	127
1	0xac	-84
2	0xde	-34
3	0x71	113
4	0x25	37
5	0x1e	30
6	0x67	103
7	0xd5	-43
8	0x81	-127
9	0x7f	127
10	0x72	114
11	0x44	68
12	0x83	-125
13	0x66	102
14	0x11	17
15	0xa4	-92
16	0x05	5
17	0x0f	15
18	0x21	33
19	0xb9	-71
20	0x22	34
21	0xaa	-86
22	0x23	35
23	0x5f	95
24	0xa8	-88
25	0xcf	-49
26	0x51	81
27	0xb2	-78
28	0xf9	-7
29	0x95	-107
30	0x9a	-102
31	0xd7	-41
32	0xb6	-74
33	0x6c	108
34	0x51	81
35	0xc9	-55
36	0xf2	-14
37	0x17	23
38	0x2a	42
39	0x99	-103
40	0x14	20
41	0xc9	-55
42	0x4d	77
43	0xe8	-24
44	0xf4	-12
45	0xe3	-29
46	0x20	32
47	0xdc	-36
48	0x4c	76
49	0x25	37
50	0x81	-127
51	0x18	24
52	0x44	68
53	0x58	88
54	0x7f	127
55	0x81	-127
56	0x60	96
57	0x08	8
58	0x45	69
59	0x81	-127
60	0x52	82
61	0xcc	-52
62	0xc9	-55
63	0xe1	-31
64	0x7f	127
65	0x39	57
66	0x7f	127
67	0x19	25
68	0xb3	-77
69	0x6e	110
70	0x2a	42
71	0xf2	-14
72	0xf4	-12
73	0x0a	10
74	0xe2	-30
75	0x04	4
76	0xf3	-13
77	0xa1	-95
78	0x2e	46
79	0x9a	-102
80	0xf9	-7
81	0x81	-127
82	0x81	-127
83	0x7f	127
84	0x63	99
85	0xfb	-5
86	0x54	84
87	0x0c	12
88	0xb1	-79
89	0x4a	74
90	0x24	36
91	0x22	34
92	0x15	21
93	0x4a	74
94	0x52	82
95	0x09	9
96	0x12	18
97	0x29	41
98	0x7f	127
99	0xde	-34
100	0x08	8
101	0xbb	-69
102	0xc8	-56
103	0x50	80
104	0x04	4
105	0xb2	-78
106	0x60	96
107	0x0a	10
108	0x3f	63
109	0x27	39
110	0x00	0
111	0xca	-54
112	0x0a	10
113	0x52	82
114	0x42	66
115	0x04	4
116	0x6d	109
117	0x7a	122
118	0x00	0
119	0x8a	-118
120	0x50	80
121	0x86	-122
122	0xc4	-60
123	0x3c	60
124	0x1c	28
125	0x7f	127
126	0xde	-34
127	0x35	53
128	0xd3	-45
129	0x76	118
130	0x6f	111
131	0x37	55
132	0x7f	127
133	0x7f	127
134	0xe4	-28
135	0xad	-83
136	0x23	35
137	0xac	-84
138	0xd0	-48
139	0x91	-111
140	0xbf	-65
141	0xde	-34
142	0xd4	-44
143	0xff	-1
144	0x60	96
145	0x37	55
146	0x7c	124
147	0x79	121
148	0x21	33
149	0x7a	122
150	0x35	53
151	0xbb	-69
152	0xd9	-39
153	0x7c	124
154	0x87	-121
155	0x12	18
156	0x0c	12
157	0xe0	-32
158	0x14	20
159	0x3a	58
160	0x2c	44
161	0xbd	-67
162	0xcc	-52
163	0xbc	-68
164	0x59	89
165	0x07	7
166	0x76	118
167	0x7f	127
168	0xad	-83
169	0xd4	-44
170	0x75	117
171	0x81	-127
172	0xd9	-39
173	0x68	104
174	0x37	55
175	0xe2	-30
176	0x7f	127
177	0x7f	127
178	0xf2	-14
179	0x9d	-99

simple_cnn/conv2d/Conv2D i1 [20, 3, 3, 1]
0	0xb0	-80
1	0xdb	-37
2	0xe5	-27
3	0xa0	-96
4	0xd4	-44
5	0x7f	127
6	0xde	-34
7	0x51	81
8	0x5f	95
9	0x74	116
10	0x7f	127
11	0xc6	-58
12	0x18	24
13	0xba	-70
14	0xb4	-76
15	0x5f	95
16	0x26	38
17	0xa5	-91
18	0x01	1
19	0x57	87
20	0x7f	127
21	0xfd	-3
22	0xfa	-6
23	0xee	-18
24	0xbb	-69
25	0xd1	-47
26	0x2a	42
27	0x6e	110
28	0x81	-127
29	0x95	-107
30	0xeb	-21
31	0xc1	-63
32	0x6c	108
33	0x76	118
34	0x15	21
35	0xa8	-88
36	0x8e	-114
37	0xf3	-13
38	0x6d	109
39	0x81	-127
40	0x3e	62
41	0x83	-125
42	0xcc	-52
43	0x11	17
44	0x97	-105
45	0x6d	109
46	0xf3	-13
47	0xbd	-67
48	0x7f	127
49	0x49	73
50	0x0e	14
51	0xfc	-4
52	0x73	115
53	0x11	17
54	0x81	-127
55	0x51	81
56	0x2b	43
57	0xad	-83
58	0x3f	63
59	0xe4	-28
60	0xbf	-65
61	0x2f	47
62	0x3f	63
63	0x05	5
64	0x03	3
65	0xc7	-57
66	0x7f	127
67	0x12	18
68	0xdb	-37
69	0x16	22
70	0x3b	59
71	0x3c	60
72	0x90	-112
73	0x1f	31
74	0x82	-126
75	0x8a	-118
76	0x7f	127
77	0x67	103
78	0x10	16
79	0x5f	95
80	0xa9	-87
81	0x68	104
82	0x22	34
83	0x81	-127
84	0x3d	61
85	0xbe	-66
86	0x3e	62
87	0xe0	-32
88	0x58	88
89	0xf4	-12
90	0xd9	-39
91	0xd3	-45
92	0xe6	-26
93	0x4b	75
94	0x04	4
95	0xcc	-52
96	0x7f	127
97	0x6b	107
98	0x12	18
99	0x64	100
100	0xbb	-69
101	0xf5	-11
102	0x28	40
103	0xf6	-10
104	0x8e	-114
105	0x7f	127
106	0xde	-34
107	0xbc	-68
108	0x93	-109
109	0x20	32
110	0x97	-105
111	0xf3	-13
112	0xb7	-73
113	0x2a	42
114	0x81	-127
115	0xf2	-14
116	0x03	3
117	0x81	-127
118	0x2f	47
119	0x40	64
120	0xdb	-37
121	0x9d	-99
122	0xb1	-79
123	0xd0	-48
124	0x8b	-117
125	0x06	6
126	0x15	21
127	0x54	84
128	0x7f	127
129	0xb4	-76
130	0xf1	-15
131	0x3d	61
132	0xda	-38
133	0xfe	-2
134	0x02	2
135	0x03	3
136	0x6b	107
137	0x7f	127
138	0xd8	-40
139	0xe7	-25
140	0x0e	14
141	0xb4	-76
142	0x79	121
143	0x0d	13
144	0x81	-127
145	0x34	52
146	0x5f	95
147	0xd4	-44
148	0xc7	-57
149	0x55	85
150	0xc7	-57
151	0x0e	14
152	0x70	112
153	0x3e	62
154	0xf2	-14
155	0xda	-38
156	0xc9	-55
157	0x55	85
158	0x98	-104
159	0x7f	127
160	0x28	40
161	0x9a	-102
162	0x0a	10
163	0x02	2
164	0xc7	-57
165	0x7f	127
166	0x0e	14
167	0xfc	-4
168	0x2b	43
169	0x5c	92
170	0x00	0
171	0x4d	77
172	0x7f	127
173	0xe0	-32
174	0x55	85
175	0x59	89
176	0xa8	-88
177	0x91	-111
178	0xaf	-81
179	0x9e	-98
